Level-27/AAPL_dqn.pth (torch, 23585 bytes, 6 tensors)

net.0.weight f4 [64, 11]
00000000: aeb1 8dbe 2093 c43d 0af5 a5bd 4e49 dbbd
00000010: d0e7 65bd 305b d03d aa01 85be 483d 4dbd
00000020: 5493 ff3d 7837 893e 137f 09be 7eb9 cbbd
00000030: 6c4a 6b3e 5c21 e13d 5368 90be 1c18 c3bd
00000040: ea11 133e fc54 e93d d65b 093e 7af0 8e3e
00000050: 989f f9bd 6094 9ebd 724d 29be 5613 0bbf
00000060: dc13 ab3e 216d f23e 1bf4 2ebe f9e8 c2be
00000070: c5a8 a73e be4c f53d e0f1 453e 6264 45bf
00000080: fe96 0a3d b0bc e03c b9e9 983e e02e a8bf
00000090: ebc3 cb3f a092 5e3f 6776 2e3f 6db8 35bf
000000a0: 3c2c 53be 95ab aebe d1f2 b93e b55a 0bbe
000000b0: a023 5e3e b7da 533f f68c 9ebe 7acb 0abf
000000c0: 43af 1ebf bfa2 edbe 4e90 ee3d 46ff 503f
000000d0: 5ac3 d43e 302e 52be 8b30 533e 7aca b0bd
000000e0: 2521 07c0 8057 cd3e 6240 203f 925e 9d3d
000000f0: 3f43 b43e 0338 893e 894b 57bd 746b 113f
00000100: 9767 293e fd5b 11be 6cce 763e 1c2c f3be
00000110: 03eb 223f 90ab 573e 9b56 ddbe 39e3 623d
00000120: 02d6 053e 008f ee3d f1f3 80be 5093 573e
00000130: e6d7 623d c220 6dbe d60c c3bd 9998 2fbf
00000140: ff5f adbe ff05 d6be 1b16 c3be 6a96 e53e
00000150: 7d9a a1be 31c4 6ebe f892 843f 419c 813e
00000160: f40a c33d 4a31 54bf 9bd9 22bf 3ce5 033d
00000170: 8e3d 18bf 6870 a03f c589 c4bd 3f90 bcbd
00000180: f457 c5bc b7c4 bd3e e37e c9bc 904e 203e
00000190: 90c4 3dbd 786c 973e 84ab 1b3e 86b7 21be
000001a0: f0d7 e53c 30c5 b03c 70d9 1c3e 3ca3 453e
000001b0: 0687 74be a9db 60be 70df a5bc 4ecb 4bbf
000001c0: 90ba ad3e e03d 8a3f fd9d 633e a53c 6cbd
000001d0: c972 9bbe 79e0 6e3c eeeb 15be b547 9c3e
000001e0: 367e 0c3e bc61 9b3d 84a3 62be 0cad 8b3d
000001f0: b3e2 8fbe 5032 48be d6ff 953e 6826 31bd
00000200: 8a71 edbd b299 88be b4bb 983e 734c 25be
00000210: ec69 abbd 594b 8bbe 09a2 e0be f6a0 8bbf
00000220: 3de9 813f 2709 22bf 4a0c a33e 88b8 7d3e
00000230: cf8d 893e e389 013f 990a 08be 4251 423e
00000240: d8f0 b43f 1ece dbbd e696 6abf 7776 a73b
00000250: a2ac 24be 02e2 51be f56d ab3e dc6e 08bf
00000260: 46b7 60bc 7dfd 8b3d 0028 0739 91fb b73f
00000270: 19b5 bfbe 1d37 e5bd f587 503e 3503 c1bd
00000280: 78fa febe a193 323e 7609 413e 649f f2bd
00000290: f64f 7cbd 0e1c 393e ad8e f3be a0fc acbe
000002a0: 480b 3fbe acbb a33e 3f76 503e 10f1 7d3e
000002b0: 504f 133e 3300 d1bc b9ef 0a3e 59df a83c
000002c0: 8047 5ebb 1b62 96be 40be e8bb de71 fdbd
000002d0: 7434 bc3d 407f f43b 4060 8cbd b032 85bc
000002e0: 2086 373c 0cfa a3bd d026 a6bd d86c 793e
000002f0: b85c 22bf 6d6d 733e c958 3d3f 940c a63e
00000300: 8d96 48bd 6bf2 5bbf c1cf 12bf 70dc 9c3e
00000310: f7ec 49bd 9b05 713b 20fe 7f3d 88a3 2c3e
00000320: 9844 a03d 9a7e 8d3e a2c6 053e 9c00 04be
00000330: d09c 2e3e 884d e93d 7cef 7dbe 0096 663c
00000340: 81f0 65be 84d6 ce3d 7507 cd3e c523 973e
00000350: 68cf bbbe c599 88b9 9684 bebe 7636 6ebe
00000360: 7750 4bbe e13e 933e 19e2 14be e028 11be
00000370: 6557 28be 60e4 373e 2fa8 10bd 34fc 843e
00000380: eeec c33e de91 d5be d84b 633f 298e 183f
00000390: ac4b abbd c072 51bf 9b36 283d 204c 633c
000003a0: dcc0 91be 8876 043e 7017 b2bc 1c6d 1e3e
000003b0: e82d 8abe 8045 2f3b b827 913e 9c18 72be
000003c0: f47e 873e c032 f53b 2c22 e8bd 4e47 e3bd
000003d0: 00ba ce3e 5f96 62be 6352 053e 2e95 643e
000003e0: eb46 22bd 7850 cbbd 15d6 d8be 920b 4c3f
000003f0: 808e b8bc 22e5 71be 44e5 b8be 103e d23e
-0.2767462 0.09598374 -0.08103378 -0.10707341 -0.056129277 0.10173643 -0.25977832 -0.05010727
0.124792725 0.26800132 -0.13427381 -0.09947489 0.22977608 0.10992691 -0.28204593 -0.09526083
0.14362302 0.113931626 0.13413939 0.27917844 -0.12188643 -0.07743144 -0.1653345 -0.5432638
0.3341359 0.47348884 -0.17085306 -0.3806837 0.32745948 0.11977528 0.19330549 -0.77106297
0.033835404 0.027433723 0.29865816 -1.3139305 1.5919164 0.8694248 0.6814942 -0.70984536
-0.20622343 -0.34115282 0.36318067 -0.1360882 0.21693277 0.8275561 -0.3096692 -0.5421673
-0.6198618 -0.46413228 0.11648618 0.81639516 0.4155529 -0.20525432 0.20623986 -0.08632369
-2.111398 0.4010582 0.6259824 0.076840535 0.35207555 0.26800546 -0.05256227 0.56804585
0.16543423 -0.14195247 0.24102181 -0.4749459 0.6363985 0.2106154 -0.43230137 0.055392478
0.13069919 0.11648369 -0.25186113 0.21052289 0.055381678 -0.23157027 -0.09523933 -0.6859222
-0.33862302 -0.4180145 -0.38102803 0.4484132 -0.31563178 -0.23317029 1.0357351 0.25314525
0.095235735 -0.8288771 -0.6361329 0.032201037 -0.59468925 1.2534304 -0.0959659 -0.092072
-0.02408979 0.37064144 -0.024596637 0.15654969 -0.046330035 0.29574943 0.15202147 -0.15792665
0.028057069 0.021578401 0.15317321 0.1930055 -0.23879632 -0.21958794 -0.020248145 -0.79607093
0.33931398 1.0800133 0.22228236 -0.057675023 -0.30361012 0.014579886 -0.14640781 0.30523458
0.1372002 0.07587001 -0.22132689 0.068201154 -0.28102645 -0.19550443 0.2929675 -0.043249518
-0.115939215 -0.2667976 0.29830706 -0.16142444 -0.08369812 -0.27205923 -0.43873623 -1.0908496
1.0149304 -0.63295215 0.31845313 0.24777424 0.26866004 0.50601023 -0.13285293 0.1897631
1.4136 -0.10732673 -0.916365 0.0051105577 -0.16081479 -0.20496371 0.33482328 -0.5329416
-0.013715571 0.068354584 0.00012889504 1.4373647 -0.37442854 -0.11192153 0.20364363 -0.0942444
-0.49800467 0.17439128 0.18851265 -0.118468076 -0.061599694 0.18077108 -0.4756979 -0.33786488
-0.18656647 0.3197912 0.20357607 0.2479899 0.14385724 -0.02551279 0.1356801 0.020614313
-0.003391713 -0.29371724 -0.0071027577 -0.12375234 0.09189692 0.0074614584 -0.06854296 -0.016259521
0.0112014115 -0.08006677 -0.08112872 0.24357927 -0.6342273 0.23772211 0.739636 0.3243147
-0.0489717 -0.85916775 -0.5734826 0.3063693 -0.049298253 0.0036777023 0.06249821 0.16859257
0.07825583 0.27635652 0.13064054 -0.12890857 0.17052007 0.11391741 -0.24798387 0.014073849
-0.22455026 0.10099509 0.40044752 0.29519477 -0.36681676 -0.0002605451 -0.3721053 -0.23262963
-0.19854914 0.2875891 -0.14539374 -0.14175749 -0.16439588 0.17958212 -0.035316642 0.25973666
0.382667 -0.4171285 0.88787603 0.5959192 -0.08364043 -0.8181572 0.0410677 0.01387313
-0.28467453 0.12935841 -0.021739691 0.1547131 -0.2698815 0.0026744306 0.28350616 -0.236422
0.26464045 0.0074828565 -0.11334643 -0.11097585 0.40376282 -0.22127675 0.1301971 0.22322533
-0.039618414 -0.099274576 -0.42350832 0.79705155 -0.022528887 -0.23622563 -0.36112416 0.41062975

net.0.bias f4 [64]
00000000: 34de b9bd 864c d8bd 4fc4 2a3c 861e bb3c
00000010: 99cf 37be 53b2 423e 05bd 5abd 6cec 7ebe
00000020: daae 893d 66bb cebd 2792 0cbe 214a 5dbe
00000030: 01cc 353e c7eb 68bd a71f de3d 64ae 1bba
00000040: a493 5ebe 2b8f 133d a308 20be 208d 1dbe
00000050: f921 d9bb efe9 56be 1330 f13d be58 833c
00000060: a073 a4bd d4bb 55be 3864 17bd 1456 d9bc
00000070: 763f 02be 96d2 223d 847a 06be ee6e 10be
00000080: d326 5f3d 60c7 47be 8d29 823d 5ce8 4abc
00000090: 0815 503d 82a8 96bd ad1c 92bd 0de8 8a3d
000000a0: d6c3 1abe cec9 a13d a97c b4bd 8dd1 f6bd
000000b0: 8604 763d 03ef 12bd f678 92bd 0671 0cbc
000000c0: 3ac7 413d 1c2f 623c a1c6 8ebe 7168 2cbc
000000d0: 392e e6bd 1432 2b3e 63a8 5f3d 6f44 55be
000000e0: 2fc6 1a3b 569f 76be abfc 8dbd b7d2 013e
000000f0: 44e8 a13d 8719 383e 8346 a7bc 659d 0dbe
-0.09075585 -0.10561471 0.01042278 0.022841703 -0.17950286 0.19013338 -0.05340292 -0.24894875
0.067228034 -0.10094337 -0.13727628 -0.21610309 0.17753603 -0.05686548 0.10845881 -0.0005938767
-0.21736008 0.036025207 -0.15628295 -0.15385866 -0.0066263643 -0.20987676 0.117767476 0.016033527
-0.08029866 -0.20872432 -0.03696081 -0.026530303 -0.12719521 0.03975161 -0.13132674 -0.14104816
0.054480385 -0.1950965 0.063555814 -0.0123845 0.050801307 -0.07356359 -0.07134376 0.067825414
-0.15113768 0.07899819 -0.088128395 -0.120516874 0.060062908 -0.03587247 -0.07151978 -0.008571869
0.047309138 0.013805177 -0.27885917 -0.010522948 -0.11239285 0.16718322 0.054603945 -0.20826887
0.0023616662 -0.2408422 -0.06932958 0.12678038 0.07905629 0.17978488 -0.020419365 -0.13829572

net.2.weight f4 [64, 64]
00000000: 581e e33c 9af0 98bd c4fd 773d 2ec5 d6bd
00000010: 207c 8ebc a0a5 25bc c866 42bd 6038 de3b
00000020: c83e efbc 6a8b a43d bc9a ecbd c093 c5bc
00000030: 5a35 81bd dcd5 8ebd 5627 debd e0ba 343d
00000040: f87d 9cbd 1037 273c ce5e 95bd 5206 963d
00000050: d865 a0bd b059 46bd 44aa 783d 20a8 c03b
00000060: 482c 8abd 2c91 773d d02d 5c3d 5c97 d33d
00000070: 2437 9f3d 0c9b 5ebd 7a94 d9bd 5025 27bd
00000080: c430 273d e8bc bdbc 788c 95bc 30ca f4bd
00000090: 0a84 afbd 6a51 96bd 68be 3bbd c0fa 593d
000000a0: 3091 ffbd 50b3 8fbd 3ea3 f53d e0a6 45bc
000000b0: f81f 84bc 8e9a a33d 8ac2 eb3d f08a 9fbc
000000c0: 4ebc eabd 809e 153b b410 03bd a053 b4bc
000000d0: b0e9 293d 4260 8d3d c877 70bd 4834 2c3d
000000e0: 121f ffbd 00c8 17bc a047 223c a279 d03d
000000f0: 7499 fd3d 26f9 adbd a0c3 243c d668 d9bd
00000100: 78a8 aabd c8e1 323d 786c 93bd e052 abbc
00000110: 2016 9d3c 9651 fc3d 4027 c43b 581c a1bd
00000120: 2200 d6bd 92fa 8ebd 0a61 acbd a015 fa3c
00000130: 9c30 afbd 84c2 03bd 8a6b c1bd 127a 953d
00000140: 6854 dabc e0e4 b7bc a249 f5bd 3432 03bd
00000150: 88e3 3bbd 505c 72bc 0c58 0f3d 8884 6b3d
00000160: 6caa d5bd 3cfb 51bd 0047 baba 0c47 4b3d
00000170: d076 273c be54 b93d c00b 50bd 80cf e73c
00000180: 68f1 89bd a4c7 e7bd e00d f6bd 3e67 e33d
00000190: 7a2e d83d 92a4 cd3d e869 76bd 10b7 e83c
000001a0: 9cc0 083d b095 2ebc 9e82 fabd bc95 8ebd
000001b0: 5873 dd3c 9039 c7bc f0d0 0fbc 2873 ed3d
000001c0: 5052 8fbc 5440 87bd b8ce c93c 2cd0 44bd
000001d0: fc8e c8bd 90bc 6b3d 009f 9f3b b804 633d
000001e0: b01c f6bd d039 ee3d c85e 0f3d 70f9 52bc
000001f0: aa9c 803d 0c40 cfbd 444b 83bd 7869 f1bc
00000200: c097 003c 446c 47bd 48b1 de3b b002 223d
00000210: d1b7 e63d 8048 a43b af9d 55bd 94f6 bd3b
00000220: 3b11 103c 108d 643d 4097 233b f213 8d3d
00000230: 9949 bb3d 1cbf ebbd e261 f7bd 4a6f cebd
00000240: b8f4 fd3d 5c59 193d 9084 40bd 7457 02bd
00000250: 00ac ba3a 7495 dd3d 8dda 2fbd 448b 9e3d
00000260: 2668 84bd 6aff 913c b2c5 b33d c08d b5bd
00000270: 3cd0 e43d adf8 9cbd 2463 dc3d 3696 833d
00000280: 7287 c6bd 60df 873d 0d3f fcbd 71c5 8e3d
00000290: e4e6 343d f0ca c3bc 3957 2dbb 6452 bcbd
000002a0: 4094 c9bc 1504 c13d 955d 93bc da97 95bd
000002b0: fd77 9d3d 6ac8 f53d a38c edbd 0401 8b3d
000002c0: 5e3f b03d 4e8d 8c3d 3080 8abc 40d6 f63c
000002d0: eaf3 833d 4628 a9bd c564 0e3d 9880 f83c
000002e0: bcfa db3d 42dd f8bd 4f0c d1bd 8845 9dbc
000002f0: da63 f1bd 8013 c9bb df6a f5bd 8e7d 3cbd
00000300: b871 f1bc b276 e2bd 1688 f2bd 3887 e83c
00000310: 3c3a b73d 4030 5dbb e851 2dbd 38a8 56bc
00000320: 5f31 03bd 3e5b c53d dcc2 80bd 7c74 043d
00000330: 2689 edbd 29f8 cbbd ca3d cbbd 549a 8d3c
00000340: 1e67 883d 60b6 adbd 28f2 2e3d 9810 423d
00000350: b4c1 d93d f04a 00bc 2511 c5bb 113c bf3c
00000360: 9a30 b8bd 9710 a33d 9598 7e3d a2d8 c4bd
00000370: 649e ea3d 134e dabd d0b3 02bd e4dd 56bd
00000380: 201b d3bc cef3 a93d 03b2 7a3d 6c36 9dbd
00000390: 4295 ce3d d038 e23c 7c82 cdbd 60d2 47bd
000003a0: 883c 54bd dc96 9e3c 6617 a7bc 618f b6bd
000003b0: ea40 453d 5298 a63d 7318 103d 561b 9f3d
000003c0: ba0a 76bc 2e0b 76bc a014 913d 265f c33d
000003d0: dc1e 1dbd 597c 86bd 0a06 61bd aeb0 ca3d
000003e0: 60de b33d 50e6 75bd a9f3 253d 1ca0 9fbd
000003f0: 7517 a8bc 10a9 e4bc fb8e 533d 5ec5 1fbd
0.02772443 -0.07467766 0.060544744 -0.10486828 -0.017393172 -0.010110289 -0.0474613 0.006781623
-0.029204741 0.080344036 -0.11552951 -0.024118304 -0.06309004 -0.06974384 -0.108473465 0.04412353
-0.07641214 0.010205999 -0.07293473 0.07325424 -0.07831925 -0.048425376 0.060709253 0.005879417
-0.06746727 0.06044118 0.053754628 0.10331604 0.07774189 -0.054347083 -0.10624023 -0.04080707
0.04081799 -0.023161367 -0.018255457 -0.11952627 -0.08570106 -0.07339747 -0.045835882 0.05321765
-0.12478864 -0.07016623 0.119940266 -0.012063712 -0.016128525 0.07988463 0.11511715 -0.01947543
-0.114616975 0.002283007 -0.03199835 -0.022012532 0.041482627 0.06903125 -0.058707982 0.042042047
-0.12457098 -0.009263992 0.009904772 0.101794496 0.123827845 -0.08494787 0.010056406 -0.10615699
-0.08332914 0.043672353 -0.07198423 -0.020913541 0.01917559 0.12320249 0.0059861243 -0.07866734
-0.10449244 -0.06981386 -0.08416946 0.03052789 -0.085541934 -0.032167926 -0.094443396 0.07298674
-0.026651576 -0.022448003 -0.11976935 -0.0320303 -0.045871288 -0.014792517 0.034996077 0.05749944
-0.10432896 -0.051264986 -0.0014211833 0.049628302 0.010221198 0.090493664 -0.050792456 0.028297186
-0.06735498 -0.11317375 -0.12014365 0.11103676 0.1055574 0.10041155 -0.060159594 0.028407604
0.03338681 -0.0106558055 -0.122319445 -0.06962153 0.02703254 -0.02431944 -0.008777842 0.1159423
-0.017495304 -0.066040665 0.024634704 -0.04805009 -0.09792897 0.057552874 0.004871249 0.055424422
-0.120171905 0.116321206 0.0350025 -0.012876853 0.06279881 -0.10119638 -0.0641084 -0.029469237
0.00784868 -0.048687235 0.006796036 0.039553344 0.11265529 0.0050135255 -0.052152332 0.0057972167
0.008793171 0.05579859 0.0024961978 0.0688857 0.09144897 -0.115110606 -0.120792165 -0.100798205
0.12400192 0.037438735 -0.04700142 -0.031821683 0.0014241934 0.108195215 -0.042933036 0.077414066
-0.06465177 0.017821986 0.08777942 -0.08864927 0.1117253 -0.07664619 0.10761097 0.06425135
-0.09693803 0.06634402 -0.123167135 0.06971253 0.044165507 -0.02390048 -0.0026449694 -0.09195402
-0.024606824 0.09424607 -0.01798896 -0.07304354 0.076889016 0.120011166 -0.1159909 0.06787303
0.08605836 0.06862889 -0.016906828 0.03013146 0.06443007 -0.08259635 0.03476407 0.030334756
0.10741183 -0.121515766 -0.10207426 -0.019198194 -0.11786623 -0.006136358 -0.11983275 -0.046018176
-0.02947317 -0.110577956 -0.118423626 0.02838479 0.08946654 -0.0033750683 -0.04231444 -0.01310163
-0.032029506 0.09636544 -0.062871665 0.03233765 -0.115984246 -0.09959442 -0.09923895 0.017285503
0.06660293 -0.08482051 0.042711407 0.047379106 0.10632649 -0.0078303665 -0.0060140067 0.023344072
-0.08993645 0.07962149 0.062157232 -0.09611632 0.11455992 -0.10659423 -0.031909764 -0.052457705
-0.02576977 0.08298455 0.06120492 -0.07676396 0.100870624 0.027614981 -0.100346535 -0.048784614
-0.05181554 0.019359045 -0.0203969 -0.08914066 0.04815761 0.081345215 0.035179567 0.07768886
-0.015017206 -0.015017314 0.07084012 0.095396325 -0.038359508 -0.06566686 -0.0549374 0.0989698
0.08782649 -0.060034096 0.040515576 -0.0779421 -0.020518998 -0.027912647 0.05165003 -0.039006583

net.2.bias f4 [64]
00000000: 72d3 f7bd 321b f7bd 6361 89bd d008 4bbd
00000010: 48dc 1abd edb9 cdbd 994e a73c e731 e33c
00000020: 97b7 fabd 6cdc 453d 546f edbd ae6b b8bd
00000030: cd60 933d 5931 b9bd de00 e6bd 4339 27bd
00000040: d32e 02bd d207 52bd cf48 033c 1b9f dfbd
00000050: 0c22 babd db84 8f3d fe53 1fbd a066 dcbd
00000060: a40a 54bd bf57 d9bd 15cf 8a3d 5477 00be
00000070: 9937 3c3c 42a6 61bd b94e 9fbd 4a2a ecbd
00000080: 65dd c6bc 7167 c43c e110 f3bc d834 ce3c
00000090: ce03 b1bd a4d7 d4bd 0fa9 d93d e4cb 2e3d
000000a0: 463f c9bd 759a 8a3d c422 ccbd 49e2 08bd
000000b0: fb16 4c3d d1af 62bd daba 663a eab6 c63d
000000c0: 491f 4dbd c2a6 30bd 6383 353c 5ef6 483c
000000d0: 13eb 19be 6fa7 78bd 467a f43c 92b9 72bd
000000e0: 7735 c9ba 94d7 b93b 7099 64bd 9c52 5a3c
000000f0: a98b aabc 94b7 3f3d 2539 85bd 4a48 afbd
-0.12100877 -0.12065734 -0.06708028 -0.04956895 -0.037807733 -0.10045228 0.02042322 0.027733756
-0.12242048 0.048305914 -0.115935 -0.09004913 0.07196198 -0.090426154 -0.11230634 -0.040826093
-0.031782936 -0.05127699 0.008012964 -0.10919019 -0.09088525 0.07007762 -0.03889846 -0.10761762
-0.05176796 -0.10612439 0.06777779 -0.1254552 0.011487865 -0.055090196 -0.07778687 -0.115315035
-0.024275491 0.023975106 -0.029671134 0.025171682 -0.08643304 -0.10392693 0.106279485 0.042674914
-0.098265216 0.067677416 -0.099675685 -0.033418927 0.049826603 -0.055343453 0.0008801647 0.09702857
-0.050078664 -0.043127783 0.011078688 0.01226577 -0.1503108 -0.060706552 0.02984346 -0.059259005
-0.0015351017 0.005671451 -0.055810392 0.01332536 -0.020818548 0.046805933 -0.0650504 -0.0855871

net.4.weight f4 [3, 64]
00000000: 8473 19bd 5a51 edbd 7df6 493b 6878 77bd
00000010: 6a7d e4bd 2733 cb3d 6ea9 c23d c9e0 d73e
00000020: d582 923d e480 0c3d 2022 5a3d 8ee0 d93d
00000030: 6cb3 393e a4cb be3e 3b5f 7dbe 5c88 0e3e
00000040: 5bd2 a3bd 7ec4 91bd 4100 ac3d a989 d9bd
00000050: 2af7 a3bd 8e73 7dbe 3b36 cdbc 7685 df3d
00000060: 605d 30bd 0987 133d b227 5d3e 3a41 043f
00000070: a2fb 223f 70ee 45bc 35c2 d6bc c4d0 a3bd
00000080: c960 fdbc abc2 ae3b 5fd8 853d 0a0c d9bc
00000090: 8166 c8bc 37ba a93d 9049 6c3d 87dc dfbd
000000a0: b204 65bd be2b a4be d76c 073e 587e fcbd
000000b0: 5364 9fbe 0b38 22be 1ffe ad3d 50ae e13c
000000c0: 5093 c23e 8c27 253e 995d 893e 7b64 483e
000000d0: 10cf 99bb d6df a4bc 9982 0b3e ebcf dabe
000000e0: e65b 2f3c 39c4 9b3c 37bf 6d3d c251 d23e
000000f0: b00d 97bd 296a d7be bfdd 5dbc 61d2 343d
00000100: 5465 31bd a818 f73d 2078 bfbb 7014 bdbc
00000110: b2b5 cabd 8c4c 873d 425a 033e 81a0 c43e
00000120: 7bbe b23c 3277 313d d827 363d 8a00 833d
00000130: 6500 393e 32b2 d73e 67a1 1cbe bf18 b73c
00000140: 75ab 00bd c81e a3bb 8435 08bd 5e5b a9bd
00000150: 2a9e fbbd 45d4 73be ab5c 1a3e 4410 c73d
00000160: 20db 473c 946d f9bc 582c 4b3e d347 d63e
00000170: 2097 3e3f 009e 1ebc 9184 033e 2894 993d
00000180: d5b3 2fbd 7060 e13b 4255 8cbd ecdc a1bb
00000190: 73a2 ed3d 3c4b 063e 38d1 b43d 86df 45be
000001a0: b506 73bd 996b 83be 6e3e b43d 6c8d 78bc
000001b0: 7f60 98be 3b22 2e3f 7cc3 4c3d 4983 f73d
000001c0: 2ec3 993e 5e49 533d b2c9 a63e 4878 4e3e
000001d0: 03f4 2a3d ed5b 59bd a2f3 113e fe55 cdbe
000001e0: 7832 35bd 8acc 9ebd 82aa 25bd ca26 e93e
000001f0: 9dbc 1abd 05f4 aabe 6a70 7b3d e802 b7bd
00000200: b072 f13c a4cf 433d 6203 8cbd 6230 55ba
00000210: 64bc a5bc a6f1 44bd 639c 653d d467 ac3e
00000220: 7068 ebbd c385 433d be9b 88bd d800 7cbd
00000230: d4e1 263d 9b2d d23e 01ec a33c 552e 913e
00000240: d3ee 9fbd cc13 b1bd 8c0d 6a3d 3af1 bb3d
00000250: d2c7 dc3d 1940 38be a4f0 7a3d 3a46 923d
00000260: 8042 4dbd 26e2 bfbc 0af3 dc3d 9e29 263f
00000270: d25a c03e e77e 693d 8735 7abd e863 95bd
00000280: c29b 2dbd 9e82 733d 5387 e53d 4fb1 c4bd
00000290: ea95 94bd 393b f43d 8ac1 123e e6a8 08be
000002a0: d8b7 c23d 47a5 13be a4de 2c3d 78b2 e33c
000002b0: f73e 4bbe 0158 d1bd 74eb 4f3e 8ad7 c0bc
000002c0: 16a0 cebe 6e20 773e 3715 013e bc71 cb3d
000002d0: 5cd3 f83d e18d 22bd b51c ff3d 09bb a9be
000002e0: 4f57 17bd 4d66 cb3d cf8f ba3d d4f8 843e
000002f0: efcb 60bd ef42 bdbe 8e55 773d ebc7 94bc
-0.03746368 -0.11587782 0.0030817084 -0.060417563 -0.11156733 0.09921866 0.095049724 0.42163685
0.071538605 0.034302607 0.0532552 0.106385335 0.1813485 0.3726474 -0.24743359 0.13919204
-0.079991065 -0.07117556 0.08398486 -0.1062196 -0.08006127 -0.24751112 -0.025050273 0.109141275
-0.0430578 0.03601745 0.21597174 0.5166203 0.6366521 -0.012080774 -0.026215652 -0.07998803
-0.03092994 0.005333265 0.0653541 -0.026494998 -0.02446294 0.08287471 0.057687342 -0.10930734
-0.05591268 -0.32064623 0.13225113 -0.12328786 -0.3113123 -0.15841691 0.084957354 0.027548939
0.38003016 0.16128367 0.26829222 0.1956958 -0.004693873 -0.020126265 0.13624038 -0.42736754
0.010703063 0.019014465 0.058043685 0.41078 -0.073756576 -0.4207318 -0.013541638 0.044145945
-0.043309525 0.1206525 -0.0058431774 -0.023081034 -0.09897937 0.06606397 0.128274 0.38403705
0.021819344 0.043326564 0.04447159 0.06396587 0.18066557 0.4212814 -0.15295945 0.022350667
-0.031413514 -0.0049780346 -0.03325416 -0.0826938 -0.12286027 -0.23811443 0.15074413 0.09719899
0.01219824 -0.030447759 0.19841135 0.41851673 0.7444935 -0.009681225 0.12843539 0.07498962
-0.04289611 0.0068779513 -0.06852199 -0.004939666 0.1160325 0.13114637 0.08828968 -0.19323549
-0.05933257 -0.25668028 0.0880097 -0.015170436 -0.2976112 0.6802098 0.049991116 0.120855875
0.30031723 0.05158364 0.32575756 0.20163071 0.041736614 -0.053066183 0.14253095 -0.4010467
-0.044237584 -0.077538565 -0.040445812 0.45537406 -0.037777532 -0.33389297 0.061386503 -0.08936101
0.029473633 0.047805443 -0.06836583 -0.0008132515 -0.020231433 -0.048082016 0.056057345 0.33672965
-0.11494529 0.047734987 -0.066703305 -0.061524242 0.04074271 0.4105042 0.020009996 0.2835566
-0.07809224 -0.08646354 0.057141826 0.0917687 0.107803 -0.17993201 0.06126465 0.07142301
-0.050112247 -0.023423266 0.107885435 0.6490725 0.3756929 0.05700579 -0.061086204 -0.07294446
-0.04238487 0.059450738 0.11207452 -0.096041314 -0.07255156 0.11925358 0.14331642 -0.1334568
0.09507722 -0.14418517 0.042204514 0.027795061 -0.19848238 -0.102218635 0.20304662 -0.023540277
-0.4035651 0.24133465 0.12605749 0.099338025 0.121496886 -0.039686088 0.12456647 -0.3315051
-0.0369485 0.09931622 0.091094606 0.2597109 -0.054881986 -0.3696513 0.060384326 -0.018161735

net.4.bias f4 [3]
00000000: af74 303d d715 203d e89d 393d
0.04308003 0.039083328 0.045316607
