Level-28/AAPL_ppo_actor.pth (torch, 25263 bytes, 6 tensors)

backbone.0.weight f4 [64, 16]
000000 d0 bf 30 be 80 e1 21 bd dc 71 76 be 7a c9 39 3e
       -0.1726067 -0.039521694 -0.24066871 0.18143263
000010 f2 be 4f be 8a 81 64 3e c0 05 13 3d 64 bb 62 3e
       -0.20287684 0.2231504 0.035894156 0.22141796
000020 32 fd 32 3e a4 06 0b be fc 79 fa 3d 00 69 50 3d
       0.17479399 -0.13576752 0.12230298 0.050881386
000030 6e 52 09 be f2 25 59 be 3c 4c ee 3d a8 ad 50 3d
       -0.1341035 -0.21205881 0.11635634 0.05094686
000040 0a a6 60 3e 28 69 80 3e 17 76 50 3e 37 38 2b 3d
       0.21938339 0.25080228 0.20357548 0.041801658
000050 6e d2 41 be e0 52 1f bd 13 bb dc bd 0d 9b cc bd
       -0.18927929 -0.038897395 -0.10777869 -0.09990511
000060 b5 d0 b5 3c 74 b3 9d bc b6 93 29 be 16 9b a0 bd
       0.022194246 -0.019250609 -0.16560254 -0.0784208
000070 6a 84 74 3e 78 7a 87 bd 69 aa 59 3e 50 7b 41 3e
       0.23878637 -0.06615156 0.21256413 0.18894696
000080 d0 7d b3 3d f9 d9 3b bd 55 af 81 be 01 9a 95 3d
       0.08764231 -0.04586217 -0.2532908 0.073047645
000090 34 71 26 be e6 0e 3b 3e 48 6a 37 be 1b 26 b1 3d
       -0.16254121 0.18267402 -0.17911637 0.08649846
0000a0 45 89 52 3e 2f 88 f8 3d 31 13 18 be 53 00 22 bd
       0.20560177 0.1213535 -0.14851071 -0.03955109
0000b0 2e 4f bb 3c 46 41 34 3e 81 46 1c 3e 80 a8 d0 3d
       0.022864904 0.17603025 0.1526127 0.10188389
0000c0 6a 63 49 be 78 29 6a 3e 2b 26 0a 3c 04 eb 20 be
       -0.1966683 0.22867382 0.0084319515 -0.15714651
0000d0 dc 3e cd bb 79 49 23 be 26 21 06 3d 85 5d 43 3e
       -0.006263597 -0.15945996 0.032746457 0.19078644
0000e0 51 55 6e be 24 d2 17 3c c1 b9 64 be 3a 2e f8 bd
       -0.23274733 0.00926641 -0.22336484 -0.12118192
0000f0 5a 55 b5 bd 16 a2 af bd fb 61 ac bd 9b 17 64 be
       -0.0885417 -0.08575837 -0.08417126 -0.2227463
000100 d4 10 c4 bd a6 0a 37 3e 34 29 84 3d 18 e4 1a be
       -0.09573522 0.17875156 0.06453171 -0.15126073
000110 4e 1f 3a be e0 65 a4 3d 28 00 14 be 4e 78 4b be
       -0.18176004 0.080272436 -0.14453185 -0.19870111
000120 32 cf 65 3e da f0 08 be f6 c0 6d 3e 98 6d 67 3e
       0.2244232 -0.13373128 0.2321814 0.226004
000130 d8 e5 ea bd 44 a4 de bd 5c e0 96 3d be fb 46 be
       -0.114696205 -0.10871175 0.07367012 -0.1943197
000140 ce a3 34 3e b4 62 22 3e a1 32 55 3e 44 5d 01 be
       0.17640612 0.15857965 0.20820095 -0.12633234
000150 d7 d5 e1 3c ce 0a 20 be 11 57 5a 3e a5 bb c9 3d
       0.027567787 -0.15629122 0.21322276 0.098502435
000160 68 75 0b be b7 70 72 be 56 e7 6c 3e 7b e8 f2 bd
       -0.13619006 -0.2367581 0.23135123 -0.118607484
000170 d3 29 7f 3e 2b e4 31 3e dd 0b 34 39 7b 38 37 3c
       0.24918298 0.17372195 0.00017170557 0.0111829
000180 78 0d 0f bd 62 34 35 3e 69 94 0c 3e b1 fd 70 be
       -0.034924954 0.17695764 0.13728489 -0.23534276
000190 94 e6 15 3e 17 da 22 3e 19 61 28 3d 84 8c 39 be
       0.1463874 0.15903507 0.041108225 -0.18120009
0001a0 71 47 3a 3e ea 5e df bd 27 b9 0c be 6f 57 ae bd
       0.18191315 -0.10906775 -0.13742505 -0.085127704
0001b0 b8 44 70 3e 9b 47 70 be 73 c2 46 be 21 d5 0e 3d
       0.23463714 -0.23464815 -0.19410114 0.034871224
0001c0 a2 80 33 be 5c 80 9e bd e9 08 8e bd 6c be 01 3e
       -0.17529538 -0.07739326 -0.06935293 0.12670296
0001d0 d4 ee 27 3e e3 ae 34 bd 0b db ac 3d f6 7f 6c be
       0.163997 -0.044112097 0.08440217 -0.23095688
0001e0 77 b1 55 3e ab 43 75 be 88 87 23 3e f8 0c e0 3d
       0.20868479 -0.23951595 0.1596967 0.109399736
0001f0 de ca 02 3c 40 6b 5c 3e 45 ea 6f 3e 98 22 8e 3d
       0.007982938 0.21525288 0.2342921 0.06940192
000200 f0 13 20 3e 82 95 24 3e 68 15 52 3d f0 62 fd 3c
       0.15632606 0.16072658 0.051289946 0.030930966
000210 64 cb 1b 3e e4 be 5b be 42 50 26 be c0 82 9a bd
       0.15214306 -0.21459538 -0.16241553 -0.0754447
000220 6c be c7 bd b2 e2 21 3e 7e 9c 5f be ba c4 53 3e
       -0.09753117 0.15809134 -0.21837041 0.20680514
000230 9c 41 d5 bd 00 6d 4f bd 98 6e 06 be f4 5d e9 bd
       -0.104129046 -0.05064106 -0.13128126 -0.11394873
000240 00 f9 bf 3d 6a c1 5c 3d c1 49 2a be d7 89 50 be
       0.09373665 0.05389539 -0.16629697 -0.20365082
000250 2b b4 79 3e dd 10 73 3e 31 99 e0 3d 9d ea 2f be
       0.24385135 0.23736902 0.10966719 -0.17179342
000260 9d df 4e be f7 93 9c bd a3 11 18 3e 58 b1 5e be
       -0.20202489 -0.076454096 0.14850478 -0.21747339
000270 04 95 35 bc 48 76 72 3d 8a d2 99 3a 97 ad 6b be
       -0.011082891 0.059194833 0.0011735719 -0.23015438
000280 e6 04 54 be a9 50 37 3e 9d 65 1c 3e 66 56 fa 3c
       -0.20704994 0.17901863 0.15273137 0.030558776
000290 33 ad 3e 3e 06 5c 58 bd 59 47 3c be e4 e1 ba 3d
       0.18620758 -0.052822135 -0.18386592 0.091251165
0002a0 6a c7 07 3d 7a e3 e7 bd 10 4f 17 bd 70 7b 0c 3d
       0.03314916 -0.113226846 -0.036940634 0.034297407
0002b0 21 a0 7b bc c9 cb 96 bc ac c4 a8 3c b1 6d 88 bd
       -0.015358002 -0.01840772 0.020601593 -0.06661547
0002c0 7c 9b 05 be f8 46 aa 3d c0 18 fd 3c 54 d3 75 3e
       -0.13047594 0.083143175 0.03089559 0.24006397
0002d0 00 7c 1b be 7e 71 7a be 9e 0b 75 be f4 ef 56 3e
       -0.15184021 -0.24457356 -0.23930213 0.20989972
0002e0 84 9a a1 3d 90 0a d5 bd 46 cc 15 3e f0 6a 16 bd
       0.078908 -0.10402405 0.14628705 -0.036723077
0002f0 96 25 78 3e 6c 60 51 3e a4 5c 8f 3d 20 f0 14 3c
       0.24233088 0.20446938 0.07000092 0.009090453
000300 38 3b 1c bd 2b c2 39 3e a2 d9 f6 3d 1b be 33 be
       -0.038142413 0.18140475 0.12053229 -0.17552988
000310 27 45 41 3e d0 23 fc bd 3e 6a fc bc be 2d d9 3d
       0.18874036 -0.12311518 -0.030812379 0.10604428
000320 f2 18 48 3e 6e 08 fa 3d 56 7e ec 3d bd 4a a0 bd
       0.19540766 0.12208639 0.11547534 -0.07826755
000330 9b 23 5e bc 35 c3 c6 bd 7d 27 11 3e 47 cb 32 be
       -0.013558294 -0.097052015 0.1417522 -0.17460357
000340 5a 0d 5f be 9c 0e fd 3c f3 dd d0 3d d4 1d 40 bd
       -0.21782437 0.030890755 0.101985835 -0.046903446
000350 4e bf 61 be 2d 63 b9 bd 40 49 46 3e f4 95 1a be
       -0.22045633 -0.090521194 0.1936388 -0.15096265
000360 99 3e 00 3d 3a a9 b3 bd 62 92 61 be a0 dd 65 3e
       0.031309698 -0.08772512 -0.22028497 0.22447824
000370 cb d4 c6 bd 40 9f 22 be 45 07 43 be 8f ed 9b bd
       -0.09708556 -0.15881062 -0.19045742 -0.0761367
000380 28 b7 06 be e5 62 2e be e1 02 48 3d ce 2b 5d be
       -0.13155806 -0.17029913 0.04883087 -0.21598741
000390 d1 c0 69 bd 0a 27 82 be bc d7 04 be ad 2a 64 bd
       -0.05706865 -0.2542041 -0.12972921 -0.05570476
0003a0 cb 56 d6 3d 45 7f 42 be 78 c4 6a 3e 4c e9 15 be
       0.10465773 -0.18993862 0.2292651 -0.14639777
0003b0 5d 0e 46 be b7 10 e9 bd 31 91 80 3d 68 c8 a4 3d
       -0.19341417 -0.11380141 0.06277693 0.08046037
0003c0 e0 4d 18 be 44 d0 20 3e b9 c2 52 3d 6d 91 83 bd
       -0.14873457 0.15704447 0.051455233 -0.06424222
0003d0 1e 32 f8 3d 0c 88 5f 3e e6 fa b1 3d c2 e0 0c 3e
       0.12118934 0.21829242 0.08690433 0.13757613
0003e0 09 a6 7d be 28 8e 5c 3e fb d1 b0 3d 52 4e c6 3d
       -0.24770369 0.21538603 0.086338006 0.09682907
0003f0 2b 77 d3 3d 27 82 8d bc 93 4a 52 be 30 87 a0 bd
       0.10325464 -0.017273976 -0.2053626 -0.07838285

backbone.0.bias f4 [64]
000000 94 1f 0c be 2c 19 3e 3d 66 20 c0 bc 71 88 2b 3e
       -0.13683921 0.046410725 -0.023452949 0.16751267
000010 b2 9f 38 be ce fe 0f 3e fb aa 0f 3e ac 7b 26 be
       -0.18029669 0.14062044 0.14030068 -0.16258115
000020 a2 a0 0d be f8 b2 21 3e 3b 78 84 3d 8c 0d 1b be
       -0.13830808 0.15790927 0.06468245 -0.15141886
000030 53 62 fc 3d 07 fb ff 3d 7b b4 4d 3d b5 e5 82 3d
       0.12323441 0.124990515 0.050220948 0.063914694
000040 79 15 19 3e 00 6d d1 3d e6 1f 0f 3e d3 51 d9 bd
       0.14949597 0.10225868 0.13977012 -0.1061131
000050 ba 3c 6d 3e 2f 64 70 bd 2f be 7e 3d 88 7a 30 3e
       0.23167697 -0.058689293 0.062193092 0.17234242
000060 7c 3f ec bd 2e 94 15 3e 76 04 0b 3e ec eb 96 39
       -0.11535546 0.14607307 0.1357592 0.00028786005
000070 ad 48 4f 3e 7c fd 53 3e 30 ec f4 bc 32 21 44 be
       0.20242567 0.20702165 -0.02989778 -0.19153288
000080 57 3f 80 3e 10 0f 28 be 93 e1 0e 3e e0 c1 23 be
       0.25048324 -0.16411996 0.13953237 -0.15991926
000090 b6 ca b0 3d 88 8c 5a be e4 c3 ca bd 64 44 6a 3e
       0.08632414 -0.21342671 -0.099006444 0.22877651
0000a0 fc 0c 87 bd be 76 0e 3e 9e 3a 2c be fe 91 76 3e
       -0.065942734 0.13912484 -0.16819236 0.24079129
0000b0 9c 80 3d be 71 7b 06 3e cd 63 75 3e 90 b7 0c be
       -0.18506092 0.13133027 0.23963852 -0.13741899
0000c0 7f e6 76 3d 42 46 f6 bd 74 89 78 3c 74 b1 6d be
       0.060278412 -0.12025119 0.01516949 -0.23212224
0000d0 90 40 15 be c6 de 0a 3e 91 57 e6 3c b6 94 44 3e
       -0.1457541 0.13561544 0.028117927 0.19197354
0000e0 bc ca 4d be 0c da 63 bd 85 53 5c be a8 96 01 be
       -0.20096868 -0.055627868 -0.21516235 -0.12655127
0000f0 ae fd 39 3e 95 a0 f8 3b 4c fa 43 3d 16 79 cd bd
       0.18163177 0.0075875022 0.047846124 -0.10032861

backbone.2.weight f4 [64, 64]
000000 c8 c0 26 bd 3d 38 dc 3d 50 5e 9a 3d b3 04 15 bd
       -0.040711194 0.10752914 0.0753752 -0.036381435
000010 84 de 8f bd 12 47 11 bd 6a 29 12 3d 6d 53 0d bd
       -0.07024863 -0.03546817 0.035684027 -0.03450339
000020 b0 f2 1c 3c c7 76 bb bd 86 b8 aa bd 48 b8 a4 3d
       0.009579346 -0.09153514 -0.08335976 0.08042961
000030 f6 a8 b4 bd 26 be f2 bd 96 94 e9 3d a7 89 fb 3a
       -0.08821289 -0.11852674 0.11405294 0.0019190804
000040 7e 55 8a 3d 6b f0 c7 3d 30 cf 26 bd 93 7e eb 3d
       0.067545876 0.09762653 -0.040724933 0.114987515
000050 fe 41 2b 3c 5e 98 e3 ba 10 9f 9c 3d cd 92 ea bd
       0.0104527455 -0.0017364135 0.07647526 -0.11453781
000060 70 7b ac 3d 4d 7d bf 3d fa b8 be 3d 9b 25 fd 3c
       0.08421981 0.09350071 0.09312625 0.03090172
000070 0c ff 53 3c 13 3b 98 3d 72 bc bb 3d 40 2b ba 3c
       0.012939226 0.074331425 0.091668025 0.022725701
000080 63 81 8f bd b2 b4 88 3d 7b f6 c5 3d 64 b0 26 3d
       -0.070071004 0.0667509 0.09666153 0.040695563
000090 70 82 03 bd e0 27 af 3b 42 16 a5 3d 88 f4 d8 bd
       -0.032106817 0.0053453296 0.08060886 -0.10593516
0000a0 aa 5a c1 3d 0c 0a 00 be 58 db ef bc e5 96 35 3c
       0.09441121 -0.12503833 -0.029279396 0.011083339
0000b0 ec 02 a7 bd 31 af 14 3d a0 bf 12 3d ec 01 09 3d
       -0.08154854 0.036299888 0.03582728 0.0334491
0000c0 f9 dc 91 3d d6 54 4d 3d fe 1b ef bd 80 36 1d bd
       0.07122225 0.050129734 -0.11675261 -0.038382053
0000d0 44 99 09 bd b7 7a 58 bd c6 e2 8b 3d 80 d1 36 3d
       -0.03359343 -0.052851405 0.06830363 0.04463339
0000e0 fc 75 7c bd 91 ed f6 3d 75 d0 df 3d e4 38 91 3d
       -0.061635956 0.12057031 0.10928432 0.07090929
0000f0 32 a7 f1 bd 89 0a fa bd be 74 93 bd 80 2e 94 bc
       -0.11799468 -0.12209041 -0.07200001 -0.01808858
000100 c0 df 1f 3c 68 9b 7a 3d 28 b4 e9 3d 5c 72 90 bd
       0.009757936 0.061183363 0.11411315 -0.07053062
000110 e8 09 74 bd 98 70 a4 bc 24 8b 27 3d 80 cb 1c 3c
       -0.05957976 -0.02007322 0.04090418 0.009570003
000120 76 d7 e0 3d 24 15 1f 3d a2 e5 d4 3d b6 71 98 bd
       0.10978596 0.03883852 0.103953615 -0.07443564
000130 76 17 83 bd 24 ea 74 3d e0 53 00 3c 96 0e b0 bd
       -0.06400959 0.059793606 0.007832497 -0.08596532
000140 00 ab 99 bc 20 21 ed 3c 7c 0f 8a 3d 30 31 1c bd
       -0.018758297 0.02894646 0.06741235 -0.038132846
000150 80 f5 f3 bc 2c f8 82 3d 30 61 85 3c 6a bf 8c bd
       -0.02978015 0.06394991 0.016281694 -0.06872447
000160 60 27 75 bd b4 01 6d bd fc aa 8d 3d e8 97 8b bd
       -0.059852004 -0.057862952 0.06917378 -0.06816083
000170 b0 6a aa bd b6 26 e6 3d de 9c ce 3d 64 37 7b bd
       -0.0832113 0.11237852 0.10088514 -0.06133212
000180 dc bd 86 3d 30 9b 4c 3c d0 ac b8 bc 2c 0b 7f 3d
       0.065791816 0.012488171 -0.02254334 0.062266514
000190 1c c5 c8 bd 76 16 d0 bd 28 e2 f3 bd 1e 0a 9c 3d
       -0.09803221 -0.10160534 -0.1190837 0.07619117
0001a0 7e 23 d1 3d fc 66 eb bd dc 3a 02 bd 28 71 63 3d
       0.10211848 -0.11494252 -0.031794414 0.055527836
0001b0 00 f8 d5 bb 78 30 c2 3c 50 4e 90 bd a2 39 f6 3d
       -0.006529808 0.023704752 -0.07046187 0.12022711
0001c0 92 51 be bd f0 47 ff 3d 60 6f ac bb ea e8 ef bd
       -0.09292902 0.12464893 -0.0052623004 -0.11714347
0001d0 d8 c3 63 bd c6 90 da bd 48 25 a8 3d 0c 37 09 3d
       -0.055606693 -0.106721446 0.08210236 0.033499762
0001e0 a2 c6 a7 3d fe 38 bc 3d 58 db d5 bc 54 fa c9 3d
       0.08192183 0.09190558 -0.026105568 0.098621994
0001f0 68 b3 e5 bd d4 85 9d bd 80 cb f4 3a 7a 05 97 3d
       -0.1121586 -0.07691541 0.001867637 0.073740914
000200 fa 93 d7 3d c2 88 fb 3d 2c 3a cc 3d d4 c7 b3 3d
       0.10526271 0.12281944 0.09972033 0.087783486
000210 18 5a a9 bc 38 48 9b bd 2c df c4 3d 04 ea 90 bd
       -0.020672843 -0.07582134 0.09612879 -0.07075885
000220 d8 af a6 bd 5e e7 c4 bd 4c 82 c8 bd 40 3d d3 3c
       -0.08139008 -0.09614442 -0.09790477 0.025786042
000230 d8 04 b8 3c 08 98 a4 bc e2 73 f6 3d 70 84 7a 3c
       0.022463247 -0.020092025 0.12033822 0.015290365
000240 b0 84 d2 bd 80 9d a6 3c 20 bc d3 3b 04 80 d7 bd
       -0.102792144 0.020338774 0.006461635 -0.10522464
000250 60 2e 23 bd a0 ab 44 bd 3c 4f 11 3d d2 9f ae bd
       -0.03983915 -0.048015237 0.035475954 -0.08526577
000260 8c 78 cc bd 78 5b e8 bc e8 a9 e2 3c e4 08 2d 3d
       -0.0998393 -0.028363928 0.027668908 0.042244807
000270 f8 9a b5 3c 14 2b d4 bd 60 11 70 bc 62 1f f8 bd
       0.022168621 -0.10359779 -0.01465258 -0.12115361
000280 7c 58 26 bd 22 32 a2 3d b4 e0 93 3d 98 97 bc 3d
       -0.04061173 0.07919718 0.07220593 0.09208602
000290 28 fe 1e 3d b0 f0 7c bc 38 3b a5 bd 68 ff ff bd
       0.0388166 -0.015438244 -0.08067936 -0.12499887
0002a0 c8 57 82 3c a0 13 0c bc 3c c7 ca bd 98 45 99 3c
       0.015910998 -0.008549601 -0.09901282 0.018709943
0002b0 12 0c cd bd e8 1b b8 bd 18 ee 69 3d ea 70 cc 3d
       -0.10012068 -0.08989698 0.05711183 0.09982474
0002c0 60 29 2e bd 58 b0 2f 3d 70 c2 07 3c 10 74 49 3d
       -0.042519927 0.042892784 0.008286104 0.04918295
0002d0 9c 1b 95 3d 10 54 90 bc 00 68 a8 3d a0 8c 15 3c
       0.07280657 -0.01761821 0.082229614 0.009127766
0002e0 36 bf e2 3d ce 61 cd bd 3c da 75 3d e8 9d ab 3c
       0.11071627 -0.100284204 0.060022578 0.020949319
0002f0 80 1b 97 bb e4 6d 7d bd 90 bc 01 bd 46 25 ee 3d
       -0.0046114326 -0.061872378 -0.031673968 0.11628203
000300 d2 5f c1 3d 00 30 d9 bd 60 e0 8c 3b 6a 25 da bd
       0.094421044 -0.106048584 0.0042992085 -0.106516674
000310 b2 d9 fb 3d 8c ae 37 3d 9a 02 fb 3d e8 4d 01 3d
       0.122973815 0.044844195 0.122563556 0.031568438
000320 70 75 a8 3d 40 6d 69 bd 88 19 ac bc 50 b3 d0 bd
       0.082255244 -0.056988955 -0.021008268 -0.10190451
000330 90 ad 98 3d ca a6 e7 bd 30 22 28 bc 68 80 79 3d
       0.074549794 -0.11311109 -0.010262057 0.060913473
000340 b2 dd 9c 3d 40 15 8f bd e0 73 26 bd 08 ce 20 3d
       0.076594725 -0.06986475 -0.04063785 0.039258987
000350 f8 45 be bd 7c b7 c8 3d 90 02 9b bc f6 6a 83 3d
       -0.09290689 0.09800622 -0.01892212 0.064168856
000360 a4 b8 98 3d 2a 32 be 3d 28 5e fd bd c8 ec 8c bd
       0.074570924 0.09286912 -0.123714745 -0.068811
000370 e4 ba 31 bd cc 77 ab 3d dc 61 1c bd d0 71 38 3d
       -0.043391123 0.08372459 -0.038179263 0.045030415
000380 bc f5 76 bd 70 32 c4 3d be d1 9f bd b6 f4 cb 3d
       -0.060292944 0.09579933 -0.07803677 0.09958784
000390 00 25 8f 3d 50 4e 49 3d 32 8c d0 3d 0a 10 8f 3d
       0.06989479 0.04914695 0.1018299 0.06985481
0003a0 10 7c 89 3c 9c 3e e3 bd 48 09 3e 3d b0 22 c1 bc
       0.01678279 -0.11095926 0.04639557 -0.02357611
0003b0 26 30 9d bd 70 e3 26 3d d4 ce ca 3d e2 ac a6 3d
       -0.07675199 0.040744245 0.099027306 0.081384435
0003c0 6a 55 bc bd 38 01 e1 bc 00 2f d9 3d 7e d9 c9 bd
       -0.09195979 -0.027466401 0.10604668 -0.098559365
0003d0 96 06 f6 bd 20 0d 45 bd 40 9b e9 bb d0 db 46 bd
       -0.12012975 -0.04810822 -0.007129103 -0.048549473
0003e0 98 2c b6 3c 2e 18 bd 3d 50 bb cd bc 34 cc 7d bd
       0.02223806 0.092331275 -0.025113732 -0.06196232
0003f0 a8 27 70 bd d8 cf c8 bc a4 4a 3b 3d a8 de c0 bc
       -0.05863157 -0.02451317 0.04572548 -0.02354367

backbone.2.bias f4 [64]
000000 64 4b d6 bc 24 e5 04 bd bc 76 51 bd 08 f9 e3 bc
       -0.026158996 -0.032445088 -0.051138625 -0.027828708
000010 46 31 d6 3d a6 a7 b4 3d 4f 9e c2 3d a7 ed 0e 3d
       0.10458617 0.08821039 0.09502851 0.03489461
000020 16 d9 ee 3c b4 06 b0 3d 8e e9 91 3c d6 9b 43 3c
       0.029156249 0.085950285 0.017811563 0.01193901
000030 d8 1d fa bc 6b 66 03 3d 28 d8 8e bd a9 2d 51 3c
       -0.030531809 0.032080095 -0.06974822 0.012767234
000040 80 52 39 bd 17 84 ca 3d 28 73 cd bd 2c d0 76 bd
       -0.045244694 0.098884754 -0.1003173 -0.060257122
000050 f5 0a ba 3c 84 0c 16 3b b8 13 b6 bc 78 e8 c0 bd
       0.022710303 0.0022895643 -0.0222262 -0.0941934
000060 90 e5 de bd ab b0 bc 3d d1 00 ab 3d 8a da d4 3d
       -0.10883629 0.09213384 0.08349765 0.103932455
000070 66 68 1d 3d 65 5f 0a 3e 33 8b 54 bd 6d 46 bb 3d
       0.03842964 0.13512953 -0.051890563 0.09144292
000080 08 87 da bc 7c e4 97 bd f4 cf 0c 3e 50 b0 a4 bd
       -0.026675716 -0.07416627 0.13751203 -0.080414414
000090 2e 32 6c 3d d4 8a 73 bd 90 ff 32 bc f2 05 b8 bd
       0.057665043 -0.05945857 -0.010925189 -0.08985509
0000a0 3c a0 d4 bd ea 97 1c bd e6 73 e8 3c 78 5b c4 bd
       -0.10382125 -0.038230814 0.028375577 -0.09587759
0000b0 86 76 03 3e c7 2b bf 3d 48 0a 41 3d d6 a6 ea bd
       0.12838182 0.09334522 0.047128946 -0.11457603
0000c0 9e e2 13 3d 88 ff d3 bd 71 7d e9 3d 6a 7b 9a 3d
       0.03610479 -0.10351473 0.11400879 0.075430706
0000d0 0c 11 d1 3d 60 c4 75 3b 68 5a 7e 3b 21 c9 26 bc
       0.102083296 0.0037501082 0.003881121 -0.010179789
0000e0 c3 cd 81 3d b8 dc 91 bd 39 94 81 bc 36 4c a5 bd
       0.06338074 -0.07122177 -0.015817748 -0.08071177
0000f0 3d 3f 53 bd 4c 7e f3 bd 47 3d 99 3d 84 0c cf bd
       -0.05157398 -0.118893236 0.07482391 -0.10109809

alpha_head.weight f4 [1, 64]
000000 95 89 9b bd 58 df 6a bd d0 8c eb bd ec 75 22 3d
       -0.07594601 -0.057341903 -0.11501467 0.03966324
000010 0c ce 78 bd 57 99 c0 bb 72 cb ee ba 1d c1 f7 3c
       -0.060743377 -0.0058776545 -0.001821859 0.03024345
000020 35 a8 fe bd 3f 3f fb 3d 46 9a aa bd 27 17 fe 3c
       -0.12434427 0.122679226 -0.083302066 0.0310169
000030 c8 c9 f6 3d e2 43 da bc d1 c1 ba 3d 6b 4b 12 3d
       0.120502055 -0.026643697 0.09118999 0.035716455
000040 08 68 8a bc ef d5 3d 3c 0e 61 fe 3d a0 9f 9d 3b
       -0.01689531 0.01158665 0.124208555 0.0048102885
000050 97 e7 9f ba 13 c7 b8 bd 00 fe 7d 3c 64 c8 d0 3d
       -0.0012199756 -0.090223454 0.015502453 0.101944715
000060 d8 01 94 3d 66 e7 de 3c 17 13 a4 3b 22 ce a4 3d
       0.07226914 0.027209949 0.0050071585 0.08047129
000070 18 0c c6 bb ca bf 6a 3d 79 36 27 bd 64 8d 84 bc
       -0.006043922 0.05731181 -0.040823434 -0.016180702
000080 fb 3c 02 3e f8 85 8e bd 7e 8b d2 3d fc fd 5c 3d
       0.12718575 -0.06959146 0.10280512 0.053953156
000090 a3 9f 6c bd 04 00 92 3d c6 75 be 3d e4 f5 7f bd
       -0.05776943 0.07128909 0.09299807 -0.06249036
0000a0 c8 5a be 3d 4a 8c b1 bd 6f 31 f2 bd 66 c2 f1 3d
       0.09294659 -0.08669336 -0.11825835 0.11804657
0000b0 bc 1c f6 3d b7 c0 f4 bb a9 ff c7 bd 0a 8d c7 bd
       0.120171994 -0.0074692625 -0.0976556 -0.09743698
0000c0 52 01 ef bd 28 6c e6 3c 8c fe 8c 3d 10 43 d1 bd
       -0.11670174 0.028127745 0.068844885 -0.10217869
0000d0 c4 14 d1 bd 76 f5 be bd 70 01 90 bd f6 ac 35 3d
       -0.10209039 -0.09324162 -0.07031524 0.0443544
0000e0 98 f9 16 3d 07 45 94 bb da 01 49 bc 92 e1 f5 3d
       0.036859125 -0.0045248303 -0.012268508 0.12005915
0000f0 4f 81 da bd 7a 94 f7 3d bf 8a dd 3d 20 1c e9 3d
       -0.10669195 0.120888665 0.10817479 0.113823175

beta_head.weight f4 [1, 64]
000000 89 fa eb 3b a6 a8 8e 3d a6 7b d0 bd 50 5b ef 3d
       0.007201497 0.06965761 -0.10179834 0.11687338
000010 ed e5 b0 3d 3c 74 e5 bd 21 5a 2b 3d 4e d1 8f bd
       0.08637605 -0.112038106 0.041834 -0.070223436
000020 ca 4b 06 bd 3c 25 91 3d 12 68 05 bc b6 bb 8d bd
       -0.03278712 0.0708718 -0.008142488 -0.06920569
000030 45 af 5b bc cb 8a a2 bc 5d 68 8d bd 73 bf 26 bd
       -0.013408487 -0.019841572 -0.06904671 -0.040709924
000040 72 db 9c 3d 59 d3 a6 3d 20 13 63 3d b6 41 94 bd
       0.07659043 0.0814578 0.05543816 -0.07239096
000050 70 ef f0 bd 51 bf a8 bd 7c ff 4c bd f6 28 82 3d
       -0.11764419 -0.08239616 -0.050048336 0.06355469
000060 34 fb 49 3d 12 20 dd 3d 66 02 04 be 33 dd 97 3d
       0.04931183 0.107971326 -0.1289154 0.07415237
000070 99 c3 08 be 8e ff 9e 3c 59 ce 59 bd e8 fd 68 3d
       -0.13355865 0.019408967 -0.053175304 0.05688277
000080 d0 a7 34 3d f6 dc 9d 3d fc 94 5f 3d 40 28 d5 3b
       0.04410535 0.077081606 0.054585442 0.0065050423
000090 d1 0d 35 3d 9c a3 3c 3d 08 6a a9 bc 8e 09 e9 bd
       0.04420263 0.046054468 -0.020680442 -0.113787755
0000a0 72 c1 a0 bd d7 55 0c 3d 0a fa 58 3d b0 fe 37 3d
       -0.07849397 0.03426155 0.05297283 0.044920623
0000b0 ad 23 b7 bd 17 c7 7f bc 2c 7b a8 3d c8 9e cc 3c
       -0.089423515 -0.015611432 0.08226618 0.024978057
0000c0 6b 04 a9 bd 18 77 8c 3c ff a1 dd bd d6 47 fd bc
       -0.08252796 0.017146632 -0.10821914 -0.030918043
0000d0 72 06 3a 3d f5 1f b4 3d 0b ab 04 bb 2b 90 ef 3d
       0.045416303 0.08795158 -0.002024355 0.1169742
0000e0 07 2c 94 3d 31 29 33 bc fe ce b5 bd c1 59 a1 3d
       0.0723496 -0.010935114 -0.08877371 0.07878447
0000f0 38 4f 88 3d 10 06 b8 bd 5a 60 0b 3d c2 2c ff 3d
       0.06655735 -0.08985531 0.034027435 0.12459709
