Level-28/AAPL_ppo_critic.pth (torch, 24373 bytes, 5 tensors)

v.0.weight f4 [64, 16]
00000000: d8aa e43d f03f cc3d 309f 5b3d 46bb 28be
00000010: 903b 663e 1298 163e c894 b0bd 60da 993d
00000020: d0d5 bfbc 00be 38bc 6a8f 4bbe 7067 d23c
00000030: e0d2 67bc 42ae 2abe 123d 53be f86c 07bd
00000040: 6082 aebd 8053 3ebd 14ce cf3d e813 5dbd
00000050: 882e 11bd 3c02 323e f621 43be 0c0a 6dbe
00000060: 9a06 1a3e 3c1e 31be a435 dabd e808 8c3d
00000070: 7681 573e e43a df3d e49a efbd b0bf 233d
00000080: 3013 0d3d 1049 7ebe 0609 323e d45e 213e
00000090: 72df 40be 8cc2 eebd b047 5c3e a056 653e
000000a0: 4879 6b3e 90b9 3cbe ec36 98bd 9c24 d0bd
000000b0: 4c9c 68be 80d3 4b3c 0056 ccbb 6027 65bc
000000c0: 4c67 5dbe 68cc 9dbe 0ae6 943d d434 063f
000000d0: 38b9 da3d 3b2b 0d3e 5878 d1be 04aa f1be
000000e0: 9b0e dabe 7626 06bf 2916 a0be 7d11 b6be
000000f0: 12c5 7a3e d8f5 523e 3786 103f 2817 dcbd
00000100: e874 043d 305b a8be ded7 ac3e 7e92 213f
00000110: acc8 0c3f 029e 2b3e abca 51bd 7f39 ffbe
00000120: 1158 d0bd 6b91 b9bd ade8 debe 4162 c3be
00000130: 8d65 e23e b5f8 eb3e ab14 073f d4dd b8bc
00000140: 8013 e4bc 10f9 e7bc f03c 883c 587e 53be
00000150: 4a4f 663e fc18 5dbe a604 75be 640e 0fbe
00000160: 0202 2dbe 58a5 473e 0cf7 b5bd 5eb3 523e
00000170: 560d 3f3e 2ccd 60be 7a15 293e 20bb 13be
00000180: fe26 2fbe 8929 30be a9ee e03d f02d 6c3e
00000190: 01fb 663e 4805 21be 0748 7abe 1e29 04bf
000001a0: 5e4b 01bf 2e80 d4be b7a6 cbbe 4cd0 31be
000001b0: a605 9f3d e206 933e a10a fd3d 5e75 303e
000001c0: 90fb 593e 4828 e03d e6b7 f63d 6eea c53e
000001d0: 1245 9cbc 2ef1 55be 0388 fdbc c85c 36bd
000001e0: e0e6 47bd a306 12be 655c c0be a244 50be
000001f0: da1a 1cbd 2c90 e13e 6cab 003f 4349 793e
00000200: a0b1 cb3d ea46 a13d 21ba 143d 18d3 093f
00000210: 4eb3 da3e 9a74 023e 90e6 4dbe 8e20 f1be
00000220: 8ee7 41be bbdb a3be bea9 98be 61b8 10bf
00000230: d304 5f3e 09fb 583e 545a 113e 1a9d 9dbc
00000240: 00d9 e43c fb2e 28be 84be 75bd 57bd 173e
00000250: 02da 273d 0058 4cbe 823e ddbd 84fd bebd
00000260: e552 debe 09f1 bdbe 93bf 83be 79f6 b3be
00000270: 13c3 753e fe55 e13d 0e5b 053f 08c5 8c3e
00000280: 12d4 113e 90bf 7e3d 22f2 a43b a48d e03e
00000290: 505b aa3e 538d 7d3e 54fb afbe b22a 01bf
000002a0: d086 d1be 1233 8bbd 890f d1be 6a00 babe
000002b0: f986 c53e aa93 fe3d a4f7 a83e 1b53 9cbe
000002c0: 2079 16be 4037 cabb 866f 383e aceb 453e
000002d0: 6cb2 37be f6e8 41be ac62 73be c0ad fc3b
000002e0: 04dc 893d 6885 d13d b443 86bd 305e febd
000002f0: 8c89 fcbd 92ca 24be f0b5 0f3e d83e 0c3d
00000300: 70f2 32bd 1eff 5e3e 0258 7d3e 76af 28be
00000310: 2cab f6bd a099 ad3d 189b 28be 2ce4 5a3e
00000320: 2e86 24be 5029 383e 8842 20be dc5a c03d
00000330: 66dc 71be 4098 0bbd 8065 023b 9476 fc3d
00000340: 0ef6 4e3e 23ff 633d 810d 4fbd 55b0 203f
00000350: 7fba f23e 701e fabc f1e1 0abe c8fa d1bd
00000360: ae75 07be ddcb e9be c023 b5be 2951 97be
00000370: ebff c73d 6a50 5d3e d7a1 733e 91b9 043e
00000380: c09f 1f3d 5085 213e 8ccc 93bd 4c8d c53d
00000390: f42f f8bd a0fa ed3c d84d f6bd ae23 713e
000003a0: 80f7 073e 0cfb 63be e04b 763c 1e7c 7fbe
000003b0: e000 68bd 0074 0cbc 2816 58bd 288b 68be
000003c0: 8843 e7bd b70f 013e 387e 00be 0f9b fb3d
000003d0: 8a42 e03d 2677 0c3c 0dc6 02be 2e0f 32be
000003e0: 442a fb3b 9968 bcbd 60c2 0cbc 8bac 99bd
000003f0: 0706 bebd 3956 bfbd 9931 703c 037d 223e
0.11165398 0.099731326 0.05361861 -0.16477689 0.22483659 0.14706448 -0.08622128 0.07512355
-0.023417383 -0.011275768 -0.19878927 0.025684088 -0.014149398 -0.16668037 -0.20628765 -0.033062905
-0.08520961 -0.04646635 0.10146728 -0.053974062 -0.035444766 0.17383665 -0.19055924 -0.23148364
0.15041581 -0.1729669 -0.106547624 0.06837636 0.21045479 0.10899904 -0.11699465 0.03997773
0.034442127 -0.24832559 0.17386255 0.1575883 -0.18835238 -0.116582006 0.21511722 0.22396326
0.22995484 -0.18430161 -0.074323505 -0.10163233 -0.22715873 0.012440562 -0.006235838 -0.0139864385
-0.21621436 -0.30820012 0.07270439 0.5242436 0.10679859 0.13786022 -0.40912127 -0.47200024
-0.42589268 -0.52402437 -0.31266907 -0.35560217 0.24489239 0.20601594 0.56454796 -0.10746604
0.032338053 -0.3288207 0.33758444 0.63114154 0.549937 0.16759494 -0.05121867 -0.49848554
-0.10173047 -0.090609394 -0.43536893 -0.381609 0.44218102 0.46088186 0.5276591 -0.022566713
-0.02784133 -0.028317004 0.01663062 -0.20653665 0.22491184 -0.21591562 -0.23927554 -0.13970333
-0.16895297 0.19496667 -0.08885011 0.20576236 0.18657431 -0.21953267 0.16512099 -0.14426851
-0.17104718 -0.17203344 0.10983021 0.23064399 0.22556688 -0.15724671 -0.24441539 -0.5162524
-0.50505626 -0.41504043 -0.3977563 -0.17364615 0.07764749 0.2871619 0.12355543 0.17232272
0.2128737 0.10945183 0.120467946 0.38655418 -0.019075904 -0.20892784 -0.030948645 -0.044522077
-0.048804164 -0.14260344 -0.3757049 -0.20338681 -0.038111545 0.44055307 0.5026157 0.24344353
0.09945989 0.07874854 0.03631032 0.5383773 0.42714924 0.12739792 -0.20107484 -0.4709515
-0.18935987 -0.3200358 -0.29817003 -0.5653134 0.21779184 0.21189512 0.14194614 -0.01923995
0.027935505 -0.16424172 -0.059996143 0.14818321 0.040979393 -0.19955444 -0.10802938 -0.09325698
-0.43422619 -0.37097958 -0.25732097 -0.3514898 0.24000196 0.1100273 0.52092063 0.27494073
0.14241055 0.062194407 0.0050337473 0.43858063 0.3327279 0.24760942 -0.34371436 -0.5045577
-0.40923166 -0.0679685 -0.40832165 -0.3632844 0.38579538 0.124305084 0.33001435 -0.30532154
-0.14694643 -0.006171137 0.18011293 0.19328183 -0.17939156 -0.18936524 -0.23768109 0.0077111423
0.06731418 0.10230523 -0.06555882 -0.124203086 -0.123309225 -0.160929 0.14034247 0.03423962
-0.043688238 0.21777007 0.24740604 -0.16473183 -0.12044367 0.08476567 -0.16465414 0.21376103
-0.1606681 0.1798451 -0.1565038 0.0939233 -0.23619232 -0.034080744 0.0019896924 0.123273045
0.2021105 0.05566324 -0.050549988 0.6276906 0.4740791 -0.030532092 -0.13562752 -0.10252911
-0.13228485 -0.45663348 -0.35378838 -0.29554108 0.09765609 0.21612707 0.23792206 0.12961413
0.03897071 0.15773511 -0.072167486 0.09646091 -0.12118521 0.029050171 -0.12026566 0.23548767
0.13278008 -0.22263736 0.015032738 -0.2494969 -0.05664146 -0.008572578 -0.052755505 -0.22709334
-0.112921774 0.12603651 -0.12548149 0.122854345 0.10950191 0.008573329 -0.12770863 -0.17388603
0.0076649506 -0.09199638 -0.0085912645 -0.07503613 -0.092784934 -0.093426175 0.0146602625 0.15868

v.0.bias f4 [64]
00000000: f8ed 69bd ac84 60be 1048 13be 64cb d73e
00000010: c86b 893e 681e 26be 97b3 913e dbc6 1c3e
00000020: d9c0 bf3e 2a30 143e 8ecd a63e f298 32be
00000030: 4877 47be b87c ec3e 8ccf a9bd a00b 82be
00000040: 87f7 4abd 5e3e 893e d30b c13d 4c89 ab3e
00000050: 589d b8bd a009 16be 15ac 843e e99e ae3e
00000060: 2049 a63e ec5a 31be f4ae d23e 7e9c 5d3e
00000070: ab24 193e 96ab b3ba 3c4e c13e 67bf 75be
00000080: 722c c53e e470 d93e 4e78 30be 38cb 843e
00000090: 1c7a 0cbe 2be3 9d3e 3941 ec3e 2202 453e
000000a0: 30e1 cc3e 1717 df3e 3729 e13e 0c1b 97bd
000000b0: 5b53 953e 504e 97bd ef3a 8d3e d39b 493b
000000c0: 80fe 2fbc 26da 5dbe a6ee 943e fc3e e3bd
000000d0: e367 4abe 562e 12be 929a 7dbe f4e7 dc3e
000000e0: 643a 30be a930 fa3e 2d6b a33e 8252 ce3e
000000f0: dba0 ee3e 91da 4a3e f04e 4ebe 95f7 f6bc
-0.05711171 -0.2192561 -0.14382958 0.42147362 0.26840043 -0.16222537 0.2845733 0.15310232
0.3745182 0.14471498 0.325787 -0.17441157 -0.19479096 0.46188903 -0.082915395 -0.25399494
-0.049552467 0.26805395 0.094260834 0.33503187 -0.09014386 -0.14652109 0.25912538 0.34105614
0.32477665 -0.1731984 0.41149104 0.21641728 0.14955394 -0.0013707753 0.37755 -0.23998795
0.38510472 0.4246894 -0.17233393 0.25936294 -0.13718456 0.30837378 0.4614351 0.19239095
0.40015554 0.43572304 0.43976757 -0.07378206 0.29165158 -0.07387984 0.27584025 0.0030763044
-0.01074183 -0.21665248 0.29088324 -0.11095998 -0.19766192 -0.14275488 -0.24765995 0.43145716
-0.17209774 0.4886525 0.31917706 0.40297323 0.46607098 0.19809939 -0.201473 -0.030147353

v.2.weight f4 [64, 64]
00000000: 501d 9fbc fe21 86bd 80d0 1dbc 9ef6 a33e
00000010: f64f c03e c010 3cbc e8e2 2e3e c5ce 4e3d
00000020: bd40 5a3e 516b ec3d a1f4 cf3e 0079 fd3c
00000030: d429 9d3d fdac 583e 426f 89bd 8abc 113d
00000040: c6d5 bdbe 23a0 be3e bd57 803e 0025 3a3e
00000050: e8cc 9bbc d806 9fbd ddc8 6d3e 7e95 563e
00000060: 29e4 913e a5bf cd3d 71eb d73d 4ff7 ea3e
00000070: 82bd 4c3e f21b b53e a3fd e63d 7c94 1d3d
00000080: 99c1 cd3e 5bdf 1b3e e495 fb3d 2ff4 083e
00000090: 0a19 a13d 55e9 f03d a20c 823e c516 8f3e
000000a0: 08df 933e 9509 863e 4807 833e d018 5bbc
000000b0: bead 833e 242e f2bd d5a2 b53e 377f a03d
000000c0: bda6 063e 3818 323d d75f 973e a8c0 1b3d
000000d0: 1251 cebd d491 5d3d 4e11 b1bd 6182 423e
000000e0: ec31 ce3d a0a0 813e 7c6c 383e bb66 a23e
000000f0: 5f14 7a3e 502c 4c3e 2458 b63d 02ef dbbd
00000100: 1a38 843d 7cd4 003d a810 693d 7ed7 e9bd
00000110: 9a40 893d 88f5 7e3d 30b8 5dbd d808 3d3d
00000120: 02c2 c63d 8879 943c ac68 aa3d 6ed9 b2bd
00000130: 924d d63d a4ea 32bd d8e1 623d fc3f 1f3d
00000140: 245f 413d 024b ef3d a849 e63c e0d9 09bd
00000150: 18ee c13c 30a4 3dbc a0c9 163c 8045 a6ba
00000160: 6028 433d 44f2 9a3d 7697 f6bd c0e1 97bb
00000170: 002f 3f3a 424c 8d3d e099 a33d 425e ea3d
00000180: fe06 be3d d046 d83c 94f9 883d 6845 473d
00000190: 008c 043c 04c8 b73d 180e cebd 34cb dd3d
000001a0: 9808 db3d ecfc 82bd 00c7 4fba b0b9 b73d
000001b0: 708e 7b3d 1a44 e0bd 60f8 393c ec5d ad3d
000001c0: 3e16 efbd d410 443d a813 f5bd dcca 643d
000001d0: b423 f73d a09d c8bb e0e5 ddbb a49a a73d
000001e0: 0060 aebb ec77 b6bd 9a4b e4bd 9e5e b13d
000001f0: 46e6 dcbd 1c0b b1bd 7e5c c53d 4cc4 2fbd
00000200: ace5 e43d 1e56 c73d f050 c7bc 097c 783e
00000210: 3d00 533e 7473 973d 399f e03d 529c 1e3d
00000220: 36c3 9c3e 1550 b53d 555d b63e dcde 51bd
00000230: a05b f73c 3eed b33d 1c66 ebbd 1f83 093e
00000240: f00f 3ebe c0d5 8d3e 4078 f33c 6d15 673e
00000250: 7c2f 493d d44c 71bd cd09 653e 7227 ae3e
00000260: b241 7c3e 92ae b23d 4c50 233e 118f a13e
00000270: a500 e93c 4667 fc3d 08a0 513e 3975 ac3d
00000280: ba0b 9e3e dbb8 b93d dcbf f43d c8ba e93d
00000290: 04fd d83d 46f4 ba3d 0460 5e3e 381d 133e
000002a0: eee6 253e ec9c 813e cfbd 893e 8045 f83a
000002b0: a2f5 713e a4d0 a4bd 5cd2 5f3e 071b 033e
000002c0: 60b1 263e 00cd 6b3a 31b5 233e ecea 11bd
000002d0: 8041 e2bd e49d 263d aea0 a13d 0770 af3e
000002e0: d6d6 a4bd dae2 133e aab2 c43d fd0e 143e
000002f0: 8ef4 e33d 99b7 593e f89e e5bc bbfe ebbd
00000300: 20e7 5d3c 6064 50bd 721c d0bd 725a f8bd
00000310: 909e b53d 10bf 513c b480 cf3d 8aaa 843d
00000320: d048 59bd 5cde e0bd 986b 9d3c d0b0 f6bc
00000330: 1c47 4b3d 1841 6d3d a0d6 afbc 5428 e83d
00000340: 125b a73d 8078 88ba 8029 d2bd 18bd fa3c
00000350: 1c52 9dbd f0ba f83c 908b e2bd f483 3a3d
00000360: 9a1e 8e3d 54f7 a2bd 06ca a2bd 168c f33d
00000370: e2be cdbd 0a9f 9dbd e01f 0ebc 2003 30bd
00000380: a469 2dbd 3007 aa3d 4080 c5bc 9021 083c
00000390: d6e6 a7bd c221 f5bd 4e73 a93d e8c0 c53c
000003a0: 4a0d d43d cea1 f1bd f0a5 303d d825 c23d
000003b0: 803e a4bd 9c8b 033d 6044 f03d b050 0e3c
000003c0: 92ca f3bd c64c da3d d0f0 89bd 042c 9fbd
000003d0: 467b 913d 1c4c 5bbd 2e48 e1bd e836 293d
000003e0: 0093 47bb 9c56 d0bd ca2f b03d 5097 01bd
000003f0: dcad 403d 3ccf 563d 70b7 843d 621a a1bd
-0.019423157 -0.06549452 -0.00963223 0.3202409 0.37561005 -0.011478603 0.17078745 0.05049016
0.21313758 0.115439065 0.40616325 0.030941486 0.07673994 0.2115974 -0.06710674 0.035580195
-0.3707716 0.3723155 0.2506694 0.18178177 -0.019018605 -0.07764977 0.23221155 0.20955464
0.28494385 0.10046319 0.10542954 0.45891806 0.19994166 0.35372883 0.11278846 0.038471684
0.40186766 0.15221922 0.12284449 0.13374399 0.07866104 0.117632546 0.25400263 0.2794706
0.28881097 0.26179186 0.25591493 -0.013372615 0.25718492 -0.11825207 0.35475793 0.07836764
0.13149543 0.043480128 0.29565307 0.03802553 -0.10074057 0.05409415 -0.08645879 0.18995048
0.100681156 0.2531786 0.18010134 0.31719002 0.24421833 0.19938779 0.0890353 -0.107389465
0.06456013 0.03145264 0.05690065 -0.11418055 0.06701775 0.062245876 -0.054130733 0.046151012
0.09704973 0.018124357 0.08320746 -0.08732878 0.10464014 -0.043680802 0.055391163 0.03887938
0.047209874 0.116842285 0.028111294 -0.033655047 0.023673102 -0.01157479 0.009203345 -0.0012685508
0.047645926 0.0756574 -0.12040608 -0.004635066 0.00072930753 0.06899311 0.07988334 0.114437595
0.092786774 0.026400954 0.06688228 0.048650175 0.008090019 0.08973697 -0.10061282 0.108297735
0.106949985 -0.06395897 -0.00079260767 0.08970964 0.061415136 -0.10950489 0.011350721 0.0846518
-0.11674164 0.04786761 -0.1196664 0.055857524 0.12067357 -0.006122306 -0.006771788 0.08183792
-0.0053215027 -0.08909592 -0.11147232 0.08660625 -0.10786109 -0.08644697 0.09636782 -0.042911813
0.11176619 0.097332224 -0.024330586 0.24266066 0.2060556 0.07395068 0.10967869 0.038723297
0.30617684 0.08853165 0.35618082 -0.051237926 0.030195057 0.08785485 -0.11494085 0.13428925
-0.18560767 0.2770214 0.029720426 0.22566767 0.04911755 -0.05891116 0.2236702 0.3401447
0.24634436 0.08724703 0.159486 0.31554464 0.02844269 0.12324385 0.20471203 0.08420796
0.30868322 0.090684615 0.11950657 0.11412579 0.10595134 0.09128623 0.21716315 0.14366615
0.16201374 0.25315034 0.26902625 0.0018941611 0.23628858 -0.080476075 0.2185759 0.12803279
0.162786 0.0008995086 0.15987088 -0.03562443 -0.110476494 0.04067792 0.07891975 0.34265158
-0.08048789 0.14442006 0.0960439 0.14458843 0.111306295 0.21261443 -0.028029904 -0.11523195
0.013543874 -0.050876975 -0.101616755 -0.12126626 0.08868134 0.0128019005 0.1013197 0.0647784
-0.053047955 -0.10979912 0.019216344 -0.030113608 0.049628362 0.057923406 -0.021464646 0.11335817
0.08171667 -0.0010411888 -0.10261822 0.030607745 -0.07681677 0.030362576 -0.11061776 0.045535997
0.069394305 -0.0795733 -0.07948689 0.11891954 -0.10046174 -0.0769635 -0.008674592 -0.04297173
-0.042337075 0.08302152 -0.024109006 0.008308783 -0.08198325 -0.119693294 0.08273946 0.024139836
0.10354097 -0.1179844 0.043127 0.09479874 -0.080197334 0.032115564 0.117317915 0.00868623
-0.119038716 0.106591746 -0.067353845 -0.07772067 0.07103591 -0.05353938 -0.11000095 0.04131213
-0.003045261 -0.101727694 0.08602865 -0.031638443 0.047040805 0.052443728 0.064803004 -0.0786636

v.2.bias f4 [64]
00000000: 71e5 913e 6272 98bd b2c5 553e fc94 cdbd
00000010: de09 a8bd 1a0f 703e fe7e 1f3e 6a73 4e3e
00000020: a857 963e 1cbd 7abd 355a e5bc 7459 323e
00000030: 3940 ec3d c994 8cbd 453c 663e 00c7 78ba
00000040: 1b69 303e 2087 b33c dd42 cf3c 011c 813d
00000050: 4e80 3d3e 1566 bfbd 48da a83e 7f7e 503d
00000060: fe6b ca3d a16f 4f3e a8a4 b6bb 80e8 b5bb
00000070: 0a51 8bbd e058 6ebd c290 393e a93e 9d3e
00000080: 5e96 f2bd 3684 c7bd 5b74 943d af6c b53c
00000090: edc7 063e d034 363c 5fff d3bd e63a 883e
000000a0: 375a e53c ced9 743e 3010 503d ecbd 8a3d
000000b0: aa59 923d 6c79 fcbd 687b 903e ce6c d23c
000000c0: 2044 31bd f654 07be d54f 5a3e 5db6 983e
000000d0: b99e d7bd f4c3 b13d 3b47 ea3b fad0 e6bd
000000e0: 0005 c4bc 7347 953d 7036 c8bd b291 c73d
000000f0: 9436 14bd c220 01be 8c6d 883e 9a81 4f3c
0.28495362 -0.07443692 0.20876196 -0.10038182 -0.08205007 0.23443261 0.15575787 0.20161214
0.2936375 -0.061215505 -0.027997116 0.17416936 0.11535687 -0.06864316 0.22483929 -0.00094901025
0.17227595 0.021915019 0.025300438 0.063041694 0.18505976 -0.093456425 0.32979035 0.050901886
0.09883879 0.20257427 -0.005573828 -0.005551398 -0.06802566 -0.058190227 0.18121627 0.30711868
-0.118450865 -0.09742014 0.072487555 0.022146551 0.13162203 0.01112099 -0.103514425 0.26607436
0.02799712 0.23911211 0.050796688 0.06774506 0.07146008 -0.12327847 0.28219151 0.025686648
-0.04327786 -0.13216004 0.21319516 0.29826632 -0.10528321 0.08679953 0.0071496046 -0.11270328
-0.023928165 0.072890185 -0.09776008 0.09744586 -0.036184862 -0.12610152 0.26646078 0.012665177

v.4.weight f4 [1, 64]
00000000: 858a 743e 4206 d2bd ebbb b73e 0076 153d
00000010: f882 bd3c 12bf 643e 2b2e 713e 7a8d b13e
00000020: 1bcd 793e 9075 9abc 20d9 13bd 4544 a33e
00000030: 01cc a23e e544 8bbd a351 8d3e 8aa0 c2bd
00000040: 4f95 8a3e 501a d4bd 31f7 f1bb 7c98 9e3e
00000050: bf77 913e 0cab 0bbc 2b3d 6a3e f09b b7bd
00000060: 20db 8a3e 885e 9c3e fd88 05bc e41a fdbd
00000070: babb 9aba 909b 003c e7ce b13e 8e4f 753e
00000080: ec63 95bd c8de 52bd 6f8b 0bbd a7c3 19bc
00000090: bcb6 a73e 14ac 26bd f810 90bd 3e3d 803e
000000a0: 033e 7abd e4e2 833e 165d 04bd ba89 da3d
000000b0: 0272 d9bc 6e4c d9bd c725 a23e fdcb 8ebc
000000c0: c31e 1dbd 92f2 abbd 9391 6f3e 2aec 803e
000000d0: ea28 b1bd e6bd 923e 55db 6cbd 87d9 a8bd
000000e0: 487f c3bd e675 8b3e 4cab 51bd b002 a6bc
000000f0: 40c1 383b 8693 f8bc 149e a83e 7f44 e0bd
0.23880966 -0.102551 0.35885558 0.036489487 0.02313374 0.22338513 0.23552768 0.3467825
0.24394648 -0.018854886 -0.03609574 0.31888023 0.31796268 -0.0680025 0.27601346 -0.09503277
0.27067038 -0.10356581 -0.007384204 0.3097571 0.28411672 -0.0085246675 0.22874896 -0.089652896
0.27120304 0.30540872 -0.008150336 -0.123586446 -0.0011805214 0.007849589 0.34728166 0.23956129
-0.07294449 -0.051481992 -0.03406852 -0.009385026 0.32756603 -0.04069145 -0.070344865 0.25046724
-0.061094295 0.2575904 -0.032315336 0.106708005 -0.026543621 -0.10610281 0.31669447 -0.017431254
-0.038359415 -0.08395876 0.23395376 0.2518018 -0.08650382 0.28660506 -0.05782636 -0.08244615
-0.09545761 0.27238387 -0.051188752 -0.020264953 0.0028191358 -0.030343782 0.32933104 -0.109505646
